…
lsquo;LLM is magic\u0026rsquo; The Transformer Architecture # Overview: the transformer itself # We\u0026rsquo;ll now take a look inside the transformer models and see what kind of math calculations is hapenning. pytorch, the python package that the T5 model in this demo is based off, provies very good tool for visulising model structures Using models mentioned from the previous section, if you want to look at what the model actually lookes like, you can do so by running:\npprint.pp(pipe.model) \u0026hellip;which in term will give you this monstrous output:\nT5ForConditionalGeneration( (shared): Embedding(32128, 768) (encoder): T5Stack( (embed_tokens): Embedding(32128, 768) (block): ModuleList( (0): T5Block( (layer): ModuleList( (0): T5LayerSelfAttention( (SelfAttention): T5Attention( (q): Linear(in_features=768, out_features=768, bias=False) (k): Linear(in_features=768, out_features=768, bias=False) (v): Linear(in_features=768, out_features=768, bias=False) (o): Linear(in_features=768, out_features=768, bias=False) (relative_attention_bias): Embedding(32, 12) ) (layer_norm): T5LayerNorm() (dropout): Dropout(p=0.1, inplace=False) ) (1): T5LayerFF( (DenseReluDense): T5DenseGatedActDense( (wi_0): Linear(in_features=768, out_features=2048, bias=False) (wi_1): Linear(in_features=768, out_features=2048, bias=False) (wo): Linear(in_features=2048, out_features=768, bias=False) (dropout): Dropout(p=0.1, inplace=False) (act): NewGELUActivation() ) (layer_norm): T5LayerNorm() (dropout): Dropout(p=0.1, inplace=False) ) ) ) (1-11): 11 x T5Block( (layer): ModuleList( (0): T5LayerSelfAttention( (SelfAttention): T5Attention( (q): Linear(in_features=768, out_features=768, bias=False) (k): Linear(in_features=768, out_features=768, bias=False) (v): Linear(in_features=768, out_features=768, bias=False) (o): Linear(in_features=768, out_features=768, bias=False) ) (layer_norm): T5LayerNorm() (dropout): Dropout(p=0.1, inplace=False) ) (1): T5LayerFF( (DenseReluDense): T5DenseGatedActDense( (wi_0): Linear(in_features=768, out_features=2048, bias=False) (wi_1): Linear(in_features=768, out_features=2048, bias=False) (wo): Linear(in_features=2048, out_features=768, bias=False) (dropout): Dropout(p=0.1, inplace=False) (act): NewGELUActivation() ) (layer_norm): T5LayerNorm() (dropout): Dropout(p=0.1, inplace=False) ) ) ) ) (final_layer_norm): T5LayerNorm() (dropout): Dropout(p=0.1, inplace=False) ) (decoder): T5Stack( (embed_tokens): Embedding(32128, 768) (block): ModuleList( (0): T5Block( (layer): ModuleList( (0): T5LayerSelfAttention( (SelfAttention): T5Attention( (q): Linear(in_features=768, out_features=768, bias=False) (k): Linear(in_features=768, out_features=768, bias=False) (v): Linear(in_features=768, out_features=768, bias=False) (o): Linear(in_features=768, out_features=768, bias=False) (relative_attention_bias): Embedding(32, 12) ) (layer_norm): T5LayerNorm() (dropout): Dropout(p=0.1, inplace=False) ) (1): T5LayerCrossAttention( (EncDecAttention): T5Attention( (q): Linear(in_features=768, out_features=768, bias=False) (k): Linear(in_features=768, out_features=768, bias=False) (v): Linear(in_features=768, out_features=768, bias=False) (o): Linear(in_features=768, out_features=768, bias=False) ) (layer_norm): T5LayerNorm() (dropout): Dropout(p=0.1, inplace=False) ) (2): T5LayerFF( (DenseReluDense): T5DenseGatedActDense( (wi_0): Linear(in_features=768, out_features=2048, bias=False) (wi_1): Linear(in_features=768, out_features=2048, bias=False) (wo): Linear(in_features=2048, out_features=768, bias=False) (dropout): Dropout(p=0.1, inplace=False) (act): NewGELUActivation() ) (layer_norm): T5LayerNorm() (dropout): Dropout(p=0.1, inplace=False) ) ) ) (1-11): 11 x T5Block( (layer): ModuleList( (0): T5LayerSelfAttention( (SelfAttention): T5Attention( (q): Linear(in_features=768, out_features=768, bias=False) (k): Linear(in_features=768, out_features=768, bias=False) (v): Linear(in_features=768, out_features=768, bias=False) (o): Linear(in_features=768, out_features=768, bias=False) ) (layer_norm): T5LayerNorm() (dropout): Dropout(p=0.1, inplace=False) ) (1): T5LayerCrossAttention( (EncDecAttention): T5Attention( (q): Linear(in_features=768, out_features=768, bias=False) (k): Linear(in_features=768, out_features=768, bias=False) (v): Linear(in_features=768, out_features=768, bias=False) (o): Linear(in_features=768, out_features=768, bias=False) ) (layer_norm): T5LayerNorm() (dropout): Dropout(p=0.1, inplace=False) ) (2): T5LayerFF( (DenseReluDense): T5DenseGatedActDense( (wi_0): Linear(in_features=768, out_features=2048, bias=False) (wi_1): Linear(in_features=768, out_features=2048, bias=False) (wo): Linear(in_features=2048, out_features=768, bias=False) (dropout): Dropout(p=0.1, inplace=False) (act): NewGELUActivation() ) (layer_norm): T5LayerNorm() (dropout): Dropout(p=0.1, inplace=False) ) ) ) ) (final_layer_norm): T5LayerNorm() (dropout): Dropout(p=0.1, inplace=False) ) (lm_head): Linear(in_features=768, out_features=32128, bias=False) ) Despite its indimidate looks, at conceptual level, our T5 model is actually pretty simple. It does have a lot of layers, however, most of the layers are more or less the same, apart from the very beginning (Embedding(32128, 768)) and the very end (lm_head). Not only just T5, most of the popular transformer models that you heard of (GPT, Gemmini et
…
