…
pt\u0026#39;) print(tokens) print(tokens[\u0026#39;input_ids\u0026#39;].shape) You would see our tokenized text input:\n{\u0026#39;input_ids\u0026#39;: tensor([[13048]]), \u0026#39;attention_mask\u0026#39;: tensor([[1]])} torch.Size([1, 1]) The Transformer # Base model \u0026amp; the task head\nModels in the transformers library are assembed by two parts: the transformer itself, task-specific \u0026lsquo;head\u0026rsquo;. Let\u0026rsquo;s have a look at our model architecture by running print(model):\n\u0026gt;\u0026gt;\u0026gt; print(model) Qwen3ForCausalLM( (model): Qwen3Model( (embed_tokens): Embedding(151936, 1024) (layers): ModuleList( (0-27): 28 x Qwen3DecoderLayer( (self_attn): Qwen3Attention( (q_proj): Linear(in_features=1024, out_features=2048, bias=False) (k_proj): Linear(in_features=1024, out_features=1024, bias=False) (v_proj): Linear(in_features=1024, out_features=1024, bias=False) (o_proj): Linear(in_features=2048, out_features=1024, bias=False) (q_norm): Qwen3RMSNorm((128,), eps=1e-06) (k_norm): Qwen3RMSNorm((128,), eps=1e-06) ) (mlp): Qwen3MLP( (gate_proj): Linear(in_features=1024, out_features=3072, bias=False) (up_proj): Linear(in_features=1024, out_features=3072, bias=False) (down_proj): Linear(in_features=3072, out_features=1024, bias=False) (act_fn): SiLUActivation() ) (input_layernorm): Qwen3RMSNorm((1024,), eps=1e-06) (post_attention_layernorm): Qwen3RMSNorm((1024,), eps=1e-06) ) ) (norm): Qwen3RMSNorm((1024,), eps=1e-06) (rotary_emb): Qwen3RotaryEmbedding() ) (lm_head): Linear(in_features=1024, out_features=151936, bias=False) ) In output above, our transformer base model is the one called (model): Qwen3Model at the very beginning, the task-head is the lm_head: Linear at the very end. Let\u0026rsquo;s separate them apart:\nbase_model = model.model task_head = model.lm_head print(base_model) shall give you the output save as above except the \u0026rsquo;lm_head\u0026rsqu
…
 text generation process in the next section. For a quick recap on the model architecture, please refer to the previous post: here\u0026rsquo;s the link. Text models in the transformers library are assembed by two parts, the XXXModel itself and task-specific xx_head. The XXXModel refers to the transformer model itself, and xx_head is a converter that converts transformer outputs according to different tasks, usually called task head.\nLet\u0026rsquo;s have a look at our model by running print(model):\n\u0026gt;\u0026gt;\u0026gt; print(model) Qwen3ForCausalLM( (model): Qwen3Model( (embed_tokens): Embedding(151936, 1024) (layers): ModuleList( (0-27): 28 x Qwen3DecoderLayer( (self_attn): Qwen3Attention( (q_proj): Linear(in_features=1024, out_features=2048, bias=False) (k_proj): Linear(in_features=1024, out_features=1024, bias=False) (v_proj): Linear(in_features=1024, out_features=1024, bias=False) (o_proj): Linear(in_features=2048, out_features=1024, bias=False) (q_norm): Qwen3RMSNorm((128,), eps=1e-06) (k_norm): Qwen3RMSNorm((128,), eps=1e-06) ) (mlp): Qwen3MLP( (gate_proj): Linear(in_features=1024, out_features=3072, bias=False) (up_proj): Linear(in_features=1024, out_features=3072, bias=False) (down_proj): Linear(in_features=3072, out_features=1024, bias=False) (act_fn): SiLU() ) (input_layernorm): Qwen3RMSNorm((1024,), eps=1e-06) (post_attention_layernorm): Qwen3RMSNorm((1024,), eps=1e-06) ) ) (norm): Qwen3RMSNorm((1024,), eps=1e-06) (rotary_emb): Qwen3RotaryEmbedding() ) (lm_head): Linear(in_features=1024, out_features=151936, bias=False) ) In the outputs shown above, (model) is our transformer, and (lm_head) is our text-generation head. To demonstrate, let\u0026rsquo;s use the example mentioned in the previous section:\n# convert texts into tokens example = \u0026#34;Why are you running?\u0026#34; tokens = convert(example) # pass tokens to the transformer transformed = model.model
…
 response, flags=re.DOTALL).strip() self.history.append({\u0026#34;role\u0026#34;: \u0026#34;user\u0026#34;, \u0026#34;content\u0026#34;: user_input}) self.history.append({\u0026#34;role\u0026#34;: \u0026#34;assistant\u0026#34;, \u0026#34;content\u0026#34;: response_history}) Then, create a new chat instance with the code below:\nchat = DemoChatbot() You will see a progress bar showing download status. Once completed, type the following to have a look at the QWen3 model structure:\npprint(chat.model) which in term will give you this output:\nQwen3ForCausalLM( (model): Qwen3Model( (embed_tokens): Embedding(151936, 1024) (layers): ModuleList( (0-27): 28 x Qwen3DecoderLayer( (self_attn): Qwen3Attention( (q_proj): Linear(in_features=1024, out_features=2048, bias=False) (k_proj): Linear(in_features=1024, out_features=1024, bias=False) (v_proj): Linear(in_features=1024, out_features=1024, bias=False) (o_proj): Linear(in_features=2048, out_features=1024, bias=False) (q_norm): Qwen3RMSNorm((128,), eps=1e-06) (k_norm): Qwen3RMSNorm((128,), eps=1e-06) ) (mlp): Qwen3MLP( (gate_proj): Linear(in_features=1024, out_features=3072, bias=False) (up_proj): Linear(in_features=1024, out_features=3072, bias=False) (down_proj): Linear(in_features=3072, out_features=1024, bias=False) (act_fn): SiLUActivation() ) (input_layernorm): Qwen3RMSNorm((1024,), eps=1e-06) (post_attention_layernorm): Qwen3RMSNorm((1024,), eps=1e-06) ) ) (norm): Qwen3RMSNorm((1024,), eps=1e-06) (rotary_emb): Qwen3RotaryEmbedding() ) (lm_head): Linear(in_features=1024, out_features=151936, bias=False) ) Model Architecture # The very core of a transformer model can be checked by:\npprint(chat.model.model) And you will get an output similar to the previous output, but without lm_head at the end:\nQwen3Model( (embed_tokens): Embedding(151936, 1024) (layers): ModuleList( (0-27): 28 x Qwen3DecoderLayer( (self_attn): Qwen3Attention( (q_proj): Linear(in_features=1024, out_features=2048, bias=False) (k_proj): Linear(in_features=1024, out_features=1024, bias=False) (v_proj): Linear(in_features=1024, out_features=1024, bias=False) (o_proj): Linear(in_features=2048, out_features=1024, bias=False) (q_norm): Qwen3RMSNorm((128,), eps=1e-06) (k_norm): Qwen3RMSNorm((128,), eps=1e-06) ) (mlp): Qwen3MLP( (gate_proj): Linear(in_features=1024, out_features=3072, bias=False) (up_proj): Linear(in_features=1024, out_features=3072, bias=False) (down_proj): Linear(in_features=3072, out_features=1024, bias=False) (act_fn): SiLUActivation() ) (input_layernorm): Qwen3RMSNorm((1024,), eps=1e-06) (post_attention_layernorm): Qwen3RMSNorm((1024,), eps=1e-06) ) ) (norm): Qwen3RMSNorm((1024,), eps=1e-06) (rotary_emb): Qwen3RotaryEmbedding() ) The embed_tokens is the Stage 1 mentioned earlier, and the lm_head is the Stage 3. The core of a transformer, is what we\u0026rsquo;ve been discussing today.\nLet\u0026rsquo;s have a look at one of the layers inside the transformer:\nlayer = chat.model.model.layers[0] pprint(layer) You will see something like this:\nQwen3DecoderLayer( (self_attn): Qwen3Attention( (q_proj): Linear(in_features=1024, out_features=2048, bias=False) (k_proj): Linear(in_features=1024, out_features=1024, bias=False) (v_proj): Linear(in_features=1024, out_features=1024, bias=False) (o_proj): Linear(in_features=2048, out_features=1024, bias=False) (q_norm): Qwen3RMSNorm((128,), eps=1e-06) (k_norm): Qwen3RMSNorm((128,), eps=1e-06) ) (mlp): Qwen3MLP( (gate_proj): Linear(in_features=1024, out_features=3072, bias=False) (up_proj): Linear(in_features=1024, out_features=3072, bias=False) (down_proj): Linear(in_features=3072, out_features=1024, bias=False) (act_fn): SiLUActivation() ) (input_layernorm): Qwen3RMSNorm((1024,), eps=1e-06) (post_attention_layernorm): Qwen3RMSNorm((1024,), eps=1e-06) ) Layer is divided into 2 major sections, just like we discussed previously:\nself_attn is where attention gets calculated. All the rest (i.e., mlp, input_layernorm and post_attention_layernorm) are step-by-step computations of combining and averaging the attention heads. Run the following code to see the structure of an attention head:\nattention = layer.self_attn pprint(attention) The q_proj, k_proj and v_proj are the three matrices mentioned earlier:\nQwen3Attention( (q_proj): Linear(in_features=1024, out_features=2048, bias=False) (k_proj): Linear(in_features=1024, out_features=1024, bias=False) (v_proj): Linear(in_features=1024, out_features=1024, bias=False) (o_proj): Linear(in_features=2048, out_features=1024, bias=False) (q_norm): Qwen3RMSNorm((128,), eps=1e-06) (k_norm): Qwen3RMSNorm((128,), eps=1e-06) ) The actual impelmentations of attention heads are different from model to model, but the general principle behind should be roughly the same. I\u0026rsquo;ll dive deeper into it in the future.\n// \u0026hellip;existing code\u0026hellip;\nHave some fun! # Meanwhile,
…
